90000
Model: "sequential"
_________________________________________________________________
 Layer (type)                Output Shape              Param #
=================================================================
 dense (Dense)               (None, 1, 48)             528
 dense_1 (Dense)             (None, 1, 24)             1176
 dense_2 (Dense)             (None, 1, 12)             300
 dense_3 (Dense)             (None, 1, 9)              117
 flatten (Flatten)           (None, 9)                 0
 dense_4 (Dense)             (None, 9)                 90
=================================================================
Total params: 2,211
Trainable params: 2,211
Non-trainable params: 0
_________________________________________________________________
Training for 910000.0 steps ...
Interval 1 (0 steps performed)
   97/10000 [..............................] - ETA: 2:15 - reward: -0.2686
C:\Users\Tobias\AppData\Local\Programs\Python\Python38\lib\site-packages\gym\logger.py:34: UserWarning: [33mWARN: Box bound precision lowered by casting to float32
…
