90000
[10000, 100000, 110000, 120000, 130000, 140000, 150000, 160000, 170000, 180000, 190000, 20000, 200000, 210000, 220000, 230000, 30000, 40000, 50000, 60000, 70000, 80000, 90000]
Model: "sequential"
_________________________________________________________________
 Layer (type)                Output Shape              Param #
=================================================================
 dense (Dense)               (None, 1, 48)             528
 dense_1 (Dense)             (None, 1, 24)             1176
 dense_2 (Dense)             (None, 1, 12)             300
 dense_3 (Dense)             (None, 1, 9)              117
 flatten (Flatten)           (None, 9)                 0
 dense_4 (Dense)             (None, 9)                 90
=================================================================
Total params: 2,211
Trainable params: 2,211
Non-trainable params: 0
_________________________________________________________________
Training for 910000.0 steps ...
Interval 1 (0 steps performed)
C:\Users\Tobias\AppData\Local\Programs\Python\Python38\lib\site-packages\gym\logger.py:34: UserWarning: [33mWARN: Box bound precision lowered by casting to float32
…
