…
  warnings.warn(colorize("%s: %s" % ("WARN", msg % args), "yellow"))
C:\Users\Tobias\AppData\Local\Programs\Python\Python38\lib\site-packages\keras\engine\training_v1.py:2079: UserWarning: `Model.state_updates` will be removed in a future version. This property should not be used in TensorFlow 2.0, as `updates` are applied automatically.
  updates=self.state_updates,
Model: "sequential"
_________________________________________________________________
 Layer (type)                Output Shape              Param #
=================================================================
 dense (Dense)               (None, 1, 48)             528
 dense_1 (Dense)             (None, 1, 24)             1176
 dense_2 (Dense)             (None, 1, 12)             300
 dense_3 (Dense)             (None, 1, 9)              117
 flatten (Flatten)           (None, 9)                 0
 dense_4 (Dense)             (None, 9)                 90
=================================================================
Total params: 2,211
Trainable params: 2,211
Non-trainable params: 0
_________________________________________________________________
Training for 1000000.0 steps ...
Interval 1 (0 steps performed)







































































10000/10000 [==============================] - 146s 14ms/step - reward: -0.1323
…
